Capstone Analisis Sentimen/code/model_1.tflite (tflite, 258200 bytes, 3 tensors)

sequential_1/dense_2/BiasAdd/ReadVariableOp f4 [64]
0.043545276 0.063986965 0.07232507 0.07388848 0.06711224 0.07191172 0.06134564 0.08359786
0.07165212 0.05775554 0.054082364 0.049065962 0.038884997 0.07588762 0.06362555 0.06534429
0.06256165 0.067768656 0.07329748 0.067050785 0.045242023 0.06371724 0.06287838 0.061716612
0.06343255 0.064943396 0.056523643 0.05816184 0.05096847 0.035112064 0.06576089 0.074012496
0.06316485 0.06255608 0.058876608 0.055840492 0.04861611 0.06399435 0.033487722 0.047255635
0.06345625 0.05447286 0.055555314 0.07524152 0.05901954 0.076147534 0.071468174 0.06734597
0.051063772 0.0811346 0.061093695 0.06605245 0.05155232 0.06808924 0.05788415 0.06825803
0.05899671 0.0757113 0.063805565 0.06170884 0.050676897 0.057757687 0.063611366 0.061689325
00000000: 885c 323d 990b 833d 2b1f 943d d852 973d
00000010: 2472 893d 7446 933d 9145 7b3d 5b35 ab3d
00000020: 59be 923d 1391 6c3d 7885 5d3d 64f9 483d
00000030: e045 1f3d f86a 9b3d 1d4e 823d 3ad3 853d
00000040: 5320 803d 4bca 8a3d fd1c 963d ec51 893d
00000050: b34f 393d 2f7e 823d 61c6 803d 8fca 7c3d
00000060: ede8 813d 0b01 853d 5685 673d 1c3b 6e3d
00000070: 50c4 503d abd1 0f3d a5ad 863d dd93 973d
00000080: 935c 813d 671d 803d 9928 713d 00b9 643d
00000090: b021 473d 780f 833d 6c2a 093d 208f 413d
000000a0: 5af5 813d ef1e 5f3d f88d 633d 3a18 9a3d
000000b0: 79be 713d 3df3 9b3d e85d 923d afec 893d
000000c0: 3f28 513d e629 a63d 623d 7a3d 8246 873d
000000d0: 8728 533d 5f72 8b3d ee17 6d3d deca 8b3d
000000e0: 89a6 713d 870e 9b3d 7eac 823d 69c2 7c3d
000000f0: 9492 4f3d 5393 6c3d ad46 823d f2ad 7c3d

sequential_1/dense_2/MatMul f4 [64, 1000]
-0.06625449 0.04878529 0.014103316 0.037670568 0.06547629 -0.05763206 -0.013006447 -0.028740166
0.014503986 -0.070259884 0.09527326 -0.060070194 -0.011428337 0.04992804 0.047912642 -0.035729114
0.08095646 -0.0159233 -0.018997367 -0.0667752 -0.059808172 -0.026672484 0.068871774 -0.082352236
0.08790015 0.07021761 0.017089024 -0.00901486 0.0371111 -0.03907517 -0.027671784 -0.023393422
0.06842752 0.09947363 0.0294349 0.04147607 0.034681946 0.07301852 0.004502228 -0.03289228
0.051001955 0.07261794 -0.04303061 -0.014468367 -0.04242961 0.014511458 0.010173164 0.017933417
0.050063282 -0.025263011 -0.049303897 -0.0059142634 -0.066173665 0.04847706 0.001031969 -0.0162967
0.015911872 -0.009082438 -0.05717813 -0.0026061567 0.054161653 -0.007968767 -0.016763512 -0.0191491
-0.0649267 0.07353781 -0.06617896 -0.058887094 -0.05738146 0.09429986 -0.061595704 -0.00025805086
0.04614196 -0.07060319 -0.072145164 0.03476068 -0.044688642 0.090024695 -0.037476044 -0.023439836
0.0053756833 -0.086199045 -0.003642307 0.03726495 -0.05337859 0.004434844 0.006614003 -0.070131704
-0.040229663 0.012378167 -0.02387447 0.08085361 -0.08913276 0.019220397 0.029027194 -0.03025358
-0.009066885 -0.04028476 -0.025870178 0.022873564 -0.07976129 -0.008865953 0.026056401 0.07660935
0.013512523 0.06224236 0.027310025 -0.027376402 -0.028245127 0.006884704 -0.07393592 0.026257446
0.051248185 0.04795558 -0.03748586 0.09433127 0.02465973 0.11666255 -0.04566633 0.035629418
0.056879707 -0.0063273716 -0.023697771 -0.02471234 0.074451506 0.09480739 0.040304326 -0.008303091
-0.09207425 -0.08344224 0.009686393 0.079384044 0.100656725 0.10057299 0.027746117 0.10274414
0.072929904 -0.04690751 -0.032596763 -0.036698878 0.041033186 -0.024710558 0.043341335 0.0020829309
0.037329134 -0.016048972 -0.0716988 0.08145674 0.03347057 0.02027018 -0.04233064 0.054437652
-0.022765934 0.03587453 -0.054710973 0.06801016 0.06008567 -0.049859844 0.040272094 -0.0009281023
-0.017282382 0.057512775 0.03829994 0.08570429 -0.018510833 0.11436546 -0.07811932 0.017117778
0.061805137 0.07198371 0.017360147 0.04156248 -0.057006314 -0.046301086 -0.05652586 -0.005360933
-0.03545135 -0.07345072 -0.049798146 0.04769028 0.04512299 0.047403898 0.05296451 0.09561363
0.0941174 0.10213088 0.08273814 0.06423504 -0.018023718 0.09143037 -0.033001088 0.021379462
0.041454483 -0.03386053 0.031689666 0.03464963 -0.025523743 -0.07466111 -0.007002826 -0.0155570395
0.06788272 -0.0075138025 -0.036355358 -0.06493535 0.016052663 -0.043784823 0.08699883 -0.025109617
-0.06749566 -0.049714606 -0.041843094 -0.071226135 0.061197698 -0.046974014 0.06796009 0.029634258
0.030369254 -0.04511462 0.0053204936 -0.05946915 0.024117276 -0.013220657 0.10445193 0.041421827
0.026886325 -0.0115214605 0.089750014 -0.026200939 -0.0267962 -0.023480838 -0.02210408 0.06425765
0.032655243 0.027524365 0.05718814 0.041583173 -0.019886928 -0.0507724 0.0062288716 0.0356554
-0.056834366 0.03107816 0.04731879 -0.014755455 0.032324906 -0.03276072 -0.047087424 0.08260353
-0.059752345 -0.017125562 0.0166264 0.0046667308 0.010885801 -0.035588056 0.04837981 0.03629502
00000000: 6fb0 87bd 16d3 473d 9811 673c 744c 1a3d
00000010: 6f18 863d 980f 6cbd fe18 55bc 7f70 ebbc
00000020: 20a2 6d3c 6ae4 8fbd a01e c33d 2a0c 76bd
00000030: eb3d 3bbc 5881 4c3d 0c40 443d b158 12bd
00000040: 80cc a53d 9571 82bc 5ea0 9bbc 70c1 88bd
00000050: 6af9 74bd 4180 dabc a50c 8d3d 4aa8 a8bd
00000060: fe04 b43d 40ce 8f3d 48fe 8b3c 10b3 13bc
00000070: cf01 183d 490d 20bd f0af e2bc 90a3 bfbc
00000080: ba23 8c3d d5b8 cb3d 7621 f13c d0e2 293d
00000090: a80e 0e3d bc8a 953d 6d87 933b 0eba 06bd
000000a0: 6de7 503d b7b8 943d dd40 30bd bb0c 6dbc
000000b0: acca 2dbd 77c1 6d3c 58ad 263c 1ae9 923c
000000c0: 280f 4d3d 60f4 cebc e2f2 49bd 70cc c1bb
000000d0: 0f86 87bd e28f 463d 2243 873a a880 85bc
000000e0: 9d59 823c 82ce 14bc 9d33 6abd 0ecc 2abb
000000f0: 9cd8 5d3d 6e8f 02bc a253 89bc 93de 9cbc
00000100: 4af8 84bd fe9a 963d d688 87bd 9833 71bd
00000110: d208 6bbd 4920 c13d c74b 7cbd 004b 87b9
00000120: 5aff 3c3d 6898 90bd d8c0 93bd 3761 0e3d
00000130: 700b 37bd de5e b83d 7b80 19bd e604 c0bc
00000140: 8026 b03b 2089 b0bd c5b3 6ebb 22a3 183d
00000150: 82a3 5abd 2b52 913b 47ba d83b 36a1 8fbd
00000160: dcc7 24bd cccd 4a3c 6494 c3bc 9496 a53d
00000170: 3d8b b6bd 1874 9d3c 70ca ed3c 5bd6 f7bc
00000180: 468d 14bc a201 25bd b2ed d3bc 5761 bb3c
00000190: e359 a3bd 8142 11bc 3c74 d53c 5de5 9c3d
000001a0: a163 5d3c d8f1 7e3d 46b9 df3c 7a44 e0bc
000001b0: 5362 e7bc 1599 e13b b76b 97bd db19 d73c
000001c0: 9ee9 513d 126d 443d c68a 19bd c130 c13d
000001d0: 3403 ca3c c6ec ee3d 9e0c 3bbd 27f0 113d
000001e0: b2fa 683d d755 cfbb d421 c2bc 8971 cabc
000001f0: 087a 983d 602a c23d 2616 253d b009 08bc
00000200: 6d91 bcbd c4e3 aabd adb3 1e3c 1a94 a23d
00000210: 1d25 ce3d 36f9 cd3d d34b e33c 856b d23d
00000220: 465c 953d 1722 40bd 2f84 05bd 9051 16bd
00000230: 6a12 283d cc6d cabc af86 313d c881 083b
00000240: 6fe6 183d 2279 83bc d2d6 92bd cbd2 a63d
00000250: 7018 093d a60d a63c e562 2dbd 04fa 5e3d
00000260: a07f babc 2cf1 123d 9d18 60bd e948 8b3d
00000270: 641c 763d d639 4cbd 5af4 243d e44b 73ba
00000280: c893 8dbc 8492 6b3d 66e0 1c3d bb85 af3d
00000290: 08a4 97bc 7038 ea3d 06fd 9fbd 953a 8c3c
000002a0: 6227 7d3d 326c 933d de36 8e3c 6b3d 2a3d
000002b0: 747f 69bd 35a6 3dbd a987 67bd c4aa afbb
000002c0: 6f35 11bd 556d 96bd 24f9 4bbd e256 433d
000002d0: e2d2 383d 972a 423d 50f1 583d 14d1 c33d
000002e0: a0c0 c03d ff29 d13d 9d72 a93d a98d 833d
000002f0: 7aa6 93bc d93f bb3d 262c 07bd fb23 af3c
00000300: 2dcc 293d 57b1 0abd 06cd 013d c5ec 0d3d
00000310: 2b17 d1bc ede7 98bd f677 e5bb f4e2 7ebc
00000320: 1806 8b3d 5836 f6bb 5be9 14bd d3fc 84bd
00000330: e080 833c b757 33bd 712c b23d afb2 cdbc
00000340: 2a3b 8abd 8ba1 4bbd aa63 2bbd 02df 91bd
00000350: 70aa 7a3d d367 40bd a92e 8b3d 8bc3 f23c
00000360: f1c8 f83c 1cca 38bd 8957 ae3b ec95 73bd
00000370: 9891 c53c 749b 58bc e5ea d53d efa9 293d
00000380: b640 dc3c 82c4 3cbc dbce b73d 5aa3 d6bc
00000390: b483 dbbc e35a c0bc 9e13 b5bc 8499 833d
000003a0: 81c1 053d c77a e13c 1c3e 6a3d 1e53 2a3d
000003b0: e9e9 a2bc b8f6 4fbd 901b cc3b 660b 123d
000003c0: 27cb 68bd a097 fe3c 59d1 413d ddc0 71bc
000003d0: 1f67 043d 1b30 06bd bede 40bd 0a2c a93d
000003e0: e0be 74bd e84a 8cbc 1734 883c 60eb 983b
000003f0: 5c5a 323c c8c4 11bd e829 463d 16aa 143d

sequential_1/dense_3/MatMul f4 [1, 64]
-0.15410392 -0.21919838 -0.3131714 0.15142095 0.22640118 0.12185352 -0.11840674 -0.13783965
0.18785764 0.29423976 0.32679912 0.23488396 0.31005305 -0.21688169 -0.25326818 -0.2527942
0.26565683 -0.19660866 -0.1429608 -0.36920604 0.28208983 -0.27449358 0.41119987 -0.14949247
0.37328514 0.22738533 0.23134363 0.30332676 0.40496868 0.36106122 -0.2626071 -0.10902546
-0.18289438 0.20361769 0.2952294 0.18383098 -0.3300577 -0.21890016 0.2648181 0.30758148
0.15503556 0.3589782 -0.25028443 -0.29472068 0.25347808 -0.17119916 -0.3315621 0.20181502
0.24992551 -0.24808167 0.38089395 0.31943002 0.23371264 0.26760373 0.13318753 0.13910557
0.38439852 -0.3033905 0.13820742 0.2976069 0.36853597 -0.31048962 0.19328119 0.34571102
00000000: 6bcd 1dbe 8a75 60be 0058 a0be 180e 1b3e
00000010: b6d5 673e 578e f93d 3c7f f2bd d625 0dbe
00000020: c15d 403e 98a6 963e 3752 a73e 6c85 703e
00000030: 46bf 9e3e 3c16 5ebe 5eac 81be 3e6e 81be
00000040: 2c04 883e c853 49be 5164 12be 9308 bdbe
00000050: 146e 903e 6c8a 8cbe ca88 d23e 8e14 19be
00000060: 3b1f bf3e b3d7 683e 58e5 6c3e a54d 9b3e
00000070: 0e58 cf3e 04dd b83e 7074 86be be48 dfbd
00000080: aa48 3bbe 2881 503e 4f28 973e 303e 3c3e
00000090: 53fd a8be 5d27 60be 3d96 873e 527b 9d3e
000000a0: a4c1 1e3e fecb b73e 4825 80be a1e5 96be
000000b0: e1c7 813e d54e 2fbe 82c2 a9be 99a8 4e3e
000000c0: 79ec 7f3e 1f09 7ebe 8804 c33e 558c a33e
000000d0: 5e52 6f3e 5b03 893e 5062 083e b171 0e3e
000000e0: e2cf c43e 0056 9bbe 3f86 0d3e ee5f 983e
000000f0: bfb0 bc3e 7ff8 9ebe 81eb 453e 0901 b13e
